challenges/Flag_in_the_model/attachment/Netron.pt (torch, 694075 bytes, 34 tensors)

RkxBR3t0aGlzIGlzIG5vdCByaWdodCB9.weight f4 [100, 100]
000000 28 69 ae 3c 97 11 26 bd ec 2f 87 bd 30 0f cb bd
       0.021290377 -0.04054412 -0.06600937 -0.09915006
000010 a6 82 87 bd 88 49 8d bd 11 0c 9c 3d a8 3f c2 bd
       -0.06616716 -0.068987906 0.07619489 -0.09484798
000020 36 01 9b bd 98 86 59 bc a2 10 a6 bd 51 e3 9c 3d
       -0.0756859 -0.013276719 -0.08108641 0.07660545
000030 5a f7 3b bd ba fb b7 bd d0 c4 45 bd d6 cb 50 3d
       -0.04589019 -0.0898356 -0.0482834 0.050975643
000040 d3 5b ac 3d 80 84 d5 bb 53 fc 8c 3d a8 f1 c0 3c
       0.084159516 -0.0065160394 0.068840645 0.02355273
000050 7e 6d 04 3d 34 3d 07 bd 00 13 86 3c c0 b7 9e bc
       0.032330982 -0.033017352 0.016366482 -0.019374728
000060 fe 44 7c 3d f8 c3 8c bd c1 d1 ac 3d e2 54 1b 3d
       0.061589234 -0.068733156 0.08438445 0.037922747
000070 8f 17 b1 3d 34 7e d8 3c 83 05 1b bd b0 ff 5b bc
       0.086470716 0.026427366 -0.037847053 -0.01342766
000080 43 21 1b bd 39 de 9b 3d ce 17 a2 bd 16 6d 62 3d
       -0.037873518 0.07610745 -0.07914697 0.055279814
000090 c1 02 cb 3d 62 51 74 3d d2 07 be bd ea 8f 6f 3d
       0.09912635 0.059647925 -0.09278835 0.058486857
0000a0 bd be 29 bd 18 53 d8 bc 2e 56 63 3d f3 dd 4d bd
       -0.041441668 -0.02640681 0.05550211 -0.050260495
0000b0 27 45 99 3d ea f6 19 3d e2 d2 52 3d 18 f9 82 bc
       0.07483893 0.03758899 0.051470645 -0.015987918
0000c0 71 d2 c0 3d 60 86 11 3b 5c 46 02 bd 68 9f 44 3c
       0.094151385 0.0022205338 -0.03180538 0.012000896
0000d0 24 03 ef 3c 6b e9 b3 bd 37 44 41 bd 4b a1 a1 bd
       0.029176302 -0.08784755 -0.047184195 -0.07892092
0000e0 8f 64 b5 bd 47 97 ba 3d 7c 98 8b bd 54 ab d8 bc
       -0.08857071 0.09110885 -0.068161935 -0.026448883
0000f0 dd 52 be 3d 20 7d a0 bd 1e 7d 27 3d 1a d7 76 bd
       0.09293149 -0.07836366 0.040890805 -0.06026373
000100 ae 24 70 3d 98 ce 24 3c 40 99 99 bd ac 8b ab 3c
       0.05862873 0.010059021 -0.07499933 0.020940624
000110 9d 36 9d 3d 68 14 18 3c ca 2d 33 bd f4 13 b3 bc
       0.07676432 0.009282209 -0.04374484 -0.0218601
000120 81 9d 93 3d ea d4 47 bd 93 83 3e bd a0 ef af 3c
       0.07207776 -0.048787035 -0.046512198 0.021476567
000130 d2 bb a7 bd 8a 59 07 bd e8 99 89 3c 6d 3c a4 bd
       -0.08190121 -0.033044375 0.016797021 -0.08019338
000140 45 f4 91 3d fe 6c 45 3d 38 f7 dd bc 65 3f 85 bd
       0.07126669 0.048199646 -0.027095422 -0.06506232
000150 a3 1e b8 bd d4 8f e7 3c 68 36 e7 bc b2 60 05 3d
       -0.089902185 0.028266825 -0.028224185 0.03256292
000160 6a 3e 01 bd 03 96 3f bd 29 eb a6 3d 2e 63 73 3d
       -0.031553663 -0.04677392 0.08150322 0.059420757
000170 5a 18 97 bd 37 f2 1f bd 2c 35 fd bc 3a 5b 8c bd
       -0.073776916 -0.039049353 -0.030909143 -0.068533376
000180 a3 91 bc bd fe 91 49 3d a7 ed ad 3d a4 9a e6 3c
       -0.092074655 0.049211495 0.08492594 0.02814991
000190 e5 bf 8a bd aa 7e 53 3d aa 07 18 3d 33 9c 2d bd
       -0.06774882 0.05163447 0.037116684 -0.04238529
0001a0 30 76 35 bd 00 80 35 3a 34 49 da bc e0 5b 0a bd
       -0.044302166 0.00069236755 -0.026646234 -0.033779025
0001b0 80 9e 53 bd bd 5b 3a bd c6 dd 16 bd 73 e2 9f 3d
       -0.05166483 -0.045497645 -0.036832593 0.07806864
0001c0 e8 c7 89 bd ba f6 86 bd f8 06 87 bd 14 7c 81 bc
       -0.06727582 -0.06590028 -0.06593126 -0.015806235
0001d0 3b 3a 8e 3d 40 6f 72 bc 6a 0d 2a bd d0 33 88 3b
       0.069447 -0.014797032 -0.0415167 0.004156567
0001e0 68 7c fa bc 6e 99 0a 3d 28 b1 e1 bc b7 d7 1a bd
       -0.0305769 0.03383773 -0.027550295 -0.037803378
0001f0 ad 8f 25 bd 93 f8 76 bd 46 fd 7f 3d 5d 0d 9d bd
       -0.040420223 -0.060295653 0.0624974 -0.076685645
000200 06 66 2c 3d 1a 82 37 bd 20 e1 e6 bb 80 22 7e ba
       0.042089485 -0.04480181 -0.00704588 -0.0009694472
000210 60 62 19 3b 80 4d 02 bd 12 8e 49 3d 30 5a fa 3b
       0.0023404583 -0.03181219 0.049207754 0.0076401457
000220 d6 01 55 3d 50 1b 5a bd 8f 27 b6 3d a5 43 bf bd
       0.052003704 -0.053248703 0.08894264 -0.09339074
000230 19 ec a1 3d 20 27 eb bb 2c eb 12 bd 57 9c bb 3d
       0.0790636 -0.007176295 -0.03586881 0.09160679
000240 b1 49 a3 3d b8 0e d9 bc 05 0e b7 3d d6 0d a0 bd
       0.0797304 -0.026496276 0.08938221 -0.07815139
000250 8a 9b a3 bd 30 b0 70 bc 09 79 9d 3d 65 3a cc 3d
       -0.07988651 -0.014690444 0.07689101 0.099720754
000260 f6 61 83 bd 50 94 c3 bd d9 b4 b4 3d 6c bb dd bc
       -0.06415169 -0.09549773 0.088235565 -0.027066909
000270 a8 f3 a9 bd 12 4e 13 3d c6 5b 78 3d 58 a2 c7 bc
       -0.08298427 0.035963126 0.060634397 -0.024369404
000280 5a b7 7a 3d 5a 80 6a bd d0 df f8 bb e1 f4 8f 3d
       0.061210014 -0.05725131 -0.00759504 0.07029129
000290 6c e1 ae bc 7a 1a 32 bd f4 ec cf 3c 00 b8 c2 3b
       -0.021347724 -0.04348228 0.025381543 0.0059423447
0002a0 ea 16 3b bd 11 d4 83 3d 22 98 5b 3d 68 9a b1 bd
       -0.04567615 0.06436933 0.053611882 -0.08672029
0002b0 f8 b2 ee bc 00 68 a9 bb d0 57 e4 3b 58 4e 34 bc
       -0.029138073 -0.0051698685 0.006968476 -0.011005007
0002c0 da ee 31 3d 98 08 a3 3c 87 d4 70 bd 13 f0 9c 3d
       0.043440677 0.019901559 -0.058796432 0.07662978
0002d0 c2 93 82 bd da 00 4d 3d 81 0e c9 3d 78 38 9d bc
       -0.06375839 0.05004964 0.098172195 -0.019191965
0002e0 61 48 cb 3d 17 cc 5c bd 70 7c 99 bd 28 db 50 3c
       0.099259146 -0.053905573 -0.07494438 0.012747563
0002f0 55 a1 9b bd 23 a6 a2 bd 30 f7 30 bd ae 73 04 3d
       -0.07599131 -0.07941844 -0.043204486 0.032336883
000300 80 8c d1 bc 80 f9 bd bc 0a 18 3e 3d c0 39 2c bb
       -0.025579691 -0.02319026 0.046409644 -0.002627954
000310 0c d4 b3 3c f2 06 7c 3d c5 79 bc 3d 34 ff a9 3c
       0.021951698 0.06153006 0.09202913 0.020751573
000320 e0 81 e9 bc 0d 9f b4 3d da 43 98 bd 40 67 35 bc
       -0.028504312 0.08819399 -0.07434817 -0.01107198
000330 bb 1f 9a bd dd aa 40 bd a0 0d fb 3b 25 e3 91 3d
       -0.07525583 -0.047037948 0.0076615363 0.071234025
000340 07 90 93 3d f7 46 a4 3d 46 ad 17 bd 80 98 96 bb
       0.072052054 0.08021348 -0.03703048 -0.004595816
000350 1d c4 81 bd f9 09 bb 3d 52 d4 6b 3d eb ae a8 3d
       -0.06336234 0.091327615 0.05757553 0.08236488
000360 cc 3e 9b bc 12 d2 a3 bd 70 de 7a bd 57 e1 a2 3d
       -0.018950842 -0.07999052 -0.06124729 0.079531364
000370 80 26 e4 bc c5 9e b4 bd 75 bd 9c bd 65 f7 8c 3d
       -0.02785039 -0.088193454 -0.076533236 0.06883124
000380 7f 77 af 3d 0d ce 99 3d 16 34 08 3d 27 ac 25 bd
       0.08567714 0.07510004 0.033252798 -0.04044738
000390 00 2c a2 3a a1 93 be 3d dd e8 83 3d e0 41 83 bc
       0.0012372732 0.09305502 0.064408995 -0.016022623
0003a0 a0 a8 ea 3b 03 b9 82 3d 02 e5 00 3d fa e3 0b bd
       0.007161215 0.063829444 0.0314684 -0.034152962
0003b0 82 11 33 3d 06 31 13 3d 2c 89 e2 3c 60 46 4f bb
       0.04371787 0.035935424 0.0276533 -0.003162764
0003c0 5b 48 bd bd 6e 0f 3d 3d 48 95 8c bd 54 80 b0 3c
       -0.09242316 0.046157293 -0.06864411 0.021545567
0003d0 3d 47 98 3d 07 c6 b7 3d b3 0d cc 3d 9f 07 c8 3d
       0.074354626 0.089733176 0.099635504 0.097670786
0003e0 ea 5d 60 bd 1e ca a7 bd d2 85 3b 3d 93 e5 49 bd
       -0.054777063 -0.08192848 0.045781918 -0.049291205
0003f0 ca 09 66 3d aa 27 8b bd 76 ff 12 bd f8 57 97 bc
       0.05616168 -0.06794675 -0.035888158 -0.018474564

RkxBR3t0aGlzIGlzIG5vdCByaWdodCB9.bias f4 [100]
000000 1c c9 eb 3c e6 67 76 3d b8 19 fb bc c3 17 9a bd
       0.02878242 0.06015768 -0.030651912 -0.075240634
000010 1a d1 42 bd 50 4b 3d 3c 83 dd 7b bd 80 13 88 bc
       -0.047562696 0.0115536 -0.061490547 -0.01661086
000020 9f 6e 91 3d 9a d6 44 bd 53 ca 7b bd 80 0c 09 bc
       0.071011774 -0.048056222 -0.06147225 -0.008364797
000030 53 f5 57 bd 0c 9e a2 3c 90 89 48 3c 81 77 a9 3d
       -0.052724194 0.019850753 0.012239829 0.08274747
000040 52 2d 48 3d 20 5d 8b bd 51 99 bc 3d 50 3d 3e 3c
       0.048871346 -0.068048716 0.0920893 0.011611298
000050 40 d7 bc ba 03 4c 9e 3d fd 4d b5 bd 00 9d 2a bb
       -0.0014407411 0.07729342 -0.08852766 -0.002603352
000060 62 72 32 3d 1b 49 ac 3d c3 6e b5 3d a3 b8 89 3d
       0.043566115 0.08412381 0.08859017 0.0672467
000070 20 97 d6 3b 89 90 9d 3d 26 56 42 3d 6a 29 1e bd
       0.006548777 0.076935835 0.04744544 -0.038613714
000080 a0 c3 f4 3b b7 aa b9 3d 46 87 65 3d 81 6d b3 3d
       0.0074696094 0.090657644 0.05603721 0.087611206
000090 84 6f dd 3c 00 92 c4 b9 c1 57 bb 3d 1d d0 84 3d
       0.027030714 -0.00037492812 0.09147597 0.06485007
0000a0 da 23 56 bd ca a5 1d 3d 66 f9 17 bd bd 8f 82 bd
       -0.052280284 0.038488187 -0.03710308 -0.06375072
0000b0 58 2b 13 3c 7a 6a 55 3d dd 12 86 3d 00 b6 48 39
       0.008982502 0.052103497 0.06546567 0.00019141287
0000c0 fd 5d a3 bd ba 7a 9b bd 68 ba 3a bc b2 f2 10 3d
       -0.07976911 -0.075917676 -0.011396982 0.035387702
0000d0 d0 e0 7c bc b8 56 c9 bc 03 27 bd bd 35 02 bd bd
       -0.015434459 -0.024577484 -0.092359565 -0.092289366
0000e0 81 95 c1 3d 0d 15 c5 bd d0 32 09 3c 96 1f 2c 3d
       0.09452344 -0.09623156 0.008373931 0.04202231
0000f0 d2 43 9d bd b2 90 1d 3d 8a e6 b5 bd 45 f8 b6 3d
       -0.07678951 0.03846807 -0.088818625 0.089340724
000100 10 29 3d bc f7 52 6d bd dd 48 88 bd b8 fe 9b 3c
       -0.011545435 -0.05794045 -0.066545226 0.019042358
000110 26 5a 3d 3d 88 dc fe bc 90 31 4a bd 90 6a ab bd
       0.04622855 -0.031111017 -0.049363673 -0.083699346
000120 6a 60 4f 3d 8a ab 4a 3d 93 b7 9b bd a0 60 25 bd
       0.050629057 0.04948 -0.076033734 -0.040375352
000130 a0 5e cf bc 28 cb 43 3c 00 60 a2 bd 18 4e cc bd
       -0.025313675 0.011950292 -0.07928467 -0.09975833
000140 df c2 a1 3d 67 a6 bd 3d da 33 a9 bd 2a 5f b6 bd
       0.07898497 0.09260254 -0.08261843 -0.0890487
000150 6d 81 7b bd d6 d2 6d 3d 88 90 bf bc 43 27 4d bd
       -0.061402727 0.058062397 -0.023384348 -0.05008627
000160 58 7e 84 3c 7a e3 4d 3d 22 82 50 3d 40 74 67 bd
       0.016173527 0.050265767 0.050905354 -0.05650735
000170 94 6f 89 bd 72 01 06 3d 71 d8 97 3d 70 60 57 bc
       -0.06710735 0.032716222 0.0741433 -0.013145551
000180 d2 ae 2d 3d d0 4a 2b bc 4d c9 81 3d dd d9 b0 3d
       0.04240305 -0.010454848 0.06337223 0.08635304

ZmMx.weight f4 [100, 100]
000000 67 58 c2 bd 4b 91 ac 3d f7 42 b9 bd 53 7d 33 bd
       -0.09489518 0.0842615 -0.09045976 -0.04382069
000010 f2 a3 5b 3d a8 1d 85 3c 92 2c 1f 3d 00 fd 4d bd
       0.053623147 0.016249493 0.038860865 -0.050290108
000020 e3 d5 58 bd c1 ef a5 3d 28 99 75 3c 97 32 7a bd
       -0.052938353 0.0810237 0.014990129 -0.061083402
000030 00 91 39 3b 56 18 5c 3d da d2 6b 3d 6d 54 83 bd
       0.0028315187 0.053734146 0.05757413 -0.06412587
000040 c8 8f 83 bc fc 89 01 bd 6e 1c 23 3d a7 2b 5a bd
       -0.016059771 -0.031625733 0.039822035 -0.053264286
000050 f0 f6 90 bd 4a a0 14 3d e0 ef bb 3c 2a 3c 44 bd
       -0.070783496 0.036285676 0.02294153 -0.04790894
000060 e8 fd c4 bd f1 22 ba 3d 9a dd 1b 3d 92 5c 39 3d
       -0.09618741 0.09088696 0.038053133 0.045254298
000070 fd b2 2c bd 1f 5a cb 3d 00 65 78 bb 0d ba 6d bd
       -0.042162884 0.099292986 -0.0037901998 -0.05803876
000080 e0 b3 85 3c 00 35 fc b9 f6 06 6b 3d 9e 83 78 3d
       0.016321123 -0.00048104674 0.057379685 0.060672395
000090 10 17 08 bc cf ce 87 3d 52 55 78 3d 1d 45 9e 3d
       -0.00830628 0.066312425 0.060628243 0.07728026
0000a0 fa 74 45 bd 23 79 35 bd 38 22 b3 3c 97 9a 96 3d
       -0.04820726 -0.044304978 0.021866903 0.073537044
0000b0 06 0b 4e 3d 34 67 e1 3c 3d 42 ae bd 2e 45 6a 3d
       0.05030348 0.027515031 -0.08508728 0.05719488
0000c0 82 ea 39 3d 13 46 1a bd 4e 97 45 3d a7 41 c8 3d
       0.04538966 -0.037664484 0.04824 0.09778147
0000d0 63 75 b4 bd 5a 5d 01 bd ca bb 69 3d 68 a5 0e 3c
       -0.08811452 -0.031583168 0.057063855 0.008706428
0000e0 51 29 9c 3d c4 fc 02 bd 6c e8 d2 bc a8 ff 6c 3c
       0.07625068 -0.031979337 -0.025745593 0.01446525
0000f0 16 8d 28 3d f5 6a a1 3d d7 c1 ab 3d c2 44 3d 3d
       0.041150175 0.078817286 0.083865814 0.04620815
000100 ac 71 b4 3c 0a 8e 3c 3d cd ea b9 3d f1 0b 89 3d
       0.02202686 0.046033897 0.09077988 0.06691731
000110 a0 ae 5e 3b 00 66 af bb b5 56 b2 3d cd 6a 65 bd
       0.0033978596 -0.0053527355 0.08707944 -0.056010056
000120 72 d7 26 3d 07 2f 39 bd c0 5e db 3a c8 2c eb bc
       0.04073281 -0.045210864 0.0016736612 -0.028707877
000130 e8 be 71 bc c6 52 28 3d 70 03 14 bc 06 27 8c bd
       -0.014754988 0.041094564 -0.009034023 -0.06843381
000140 e8 8e 60 3c af 28 91 3d 54 45 9a 3c c0 e3 b8 bd
       0.0137059465 0.07087838 0.018831886 -0.09027815
000150 e9 b8 9e 3d 1c b1 f5 3c eb 76 9e 3d 0b 51 8b 3d
       0.077501126 0.029991679 0.077375256 0.06802567
000160 78 2e 90 bd 14 8f d7 3c d9 2d 96 3d 7f 7b b2 bd
       -0.07040113 0.026313342 0.073329635 -0.08714961
000170 0c f4 81 bc 00 ad 3c bc fa e4 68 3d 0a fe b1 bd
       -0.01586344 -0.011515856 0.056858994 -0.08691032
000180 f2 6d 02 3d fa 51 c3 bd a8 b5 30 3c 9b e5 92 bd
       0.031843133 -0.0953712 0.010785498 -0.071727
000190 4d 94 c3 bd b6 42 11 3d e2 f3 03 3d 6d 60 90 3d
       -0.095497705 0.03546401 0.032215007 0.07049642
0001a0 22 00 23 3d 01 2c a4 3d 80 05 ad 3c 84 3f f9 3c
       0.03979505 0.080162056 0.021120787 0.030425794
0001b0 5a ad 6c 3d 96 49 9e bd 28 e3 c4 bd cd 99 55 bd
       0.05778251 -0.07728879 -0.09613639 -0.05214863
0001c0 8d 6b 60 bd 8d c5 3f bd 8c be ce bc 46 7d 41 3d
       -0.05479007 -0.04681926 -0.025237344 0.04723861
0001d0 b7 ca 7e bd 00 6c 1a 3c f3 fa 92 3d ce 61 86 bd
       -0.062205043 0.009425163 0.07176771 -0.065616235
0001e0 9a 73 23 3d 00 ca 34 3b 8e b0 67 3d 02 6b 62 3d
       0.039905168 0.0027586222 0.05656486 0.05527783
0001f0 d8 1a c1 bc 60 24 f1 bc 71 0f b5 3d 40 c8 4c 3b
       -0.02357237 -0.02943629 0.08840836 0.0031247288
000200 6a c1 23 bd b0 8d db 3b 90 e9 04 3c 72 2e 7b 3d
       -0.039979376 0.00670024 0.008112326 0.06132359
000210 8f 24 c5 3d 9a c5 90 bd 00 b3 44 3a 39 95 ba 3d
       0.096261136 -0.070689395 0.000750348 0.09110493
000220 fb 2a a5 3d 73 3a 50 bd ca 6f 62 bd 76 60 98 bd
       0.080648385 -0.05083699 -0.05528239 -0.074402735
000230 64 ae 13 bd ea ef 2a bd 5d 99 a5 bd 35 77 9f 3d
       -0.036054984 -0.041732706 -0.08085892 0.07786409
000240 1d a4 39 bd 39 5f ca 3d c3 8e 25 bd 40 4b 8c bc
       -0.045322526 0.098814435 -0.04041935 -0.017125726
000250 18 d5 fc bc 10 59 05 3c a8 d2 af bc 00 ac 5b bb
       -0.03086333 0.00813891 -0.021462753 -0.0033519268
000260 99 4c 8b 3d 20 44 82 bb 8d 0a 65 bd b1 34 a3 3d
       0.06801719 -0.0039754063 -0.055918265 0.079690345
000270 d8 50 43 3c 6c 78 84 3c 45 b1 ca 3d 03 e1 76 bd
       0.01192113 0.016170703 0.09897093 -0.06027318
000280 c1 02 9a 3d 3e 9d 25 3d 88 ba 9f bd 18 41 55 bc
       0.075200565 0.04043316 -0.0779925 -0.013016008
000290 7a 80 94 bd 60 de 5d bd c6 1f 77 3d 7b bb 8b 3d
       -0.072510675 -0.05416715 0.060333036 0.068228684
0002a0 b0 f9 81 3b 7e 2f a6 bd 83 11 7d bd c0 a0 42 bd
       0.0039665326 -0.08114527 -0.06178428 -0.047516584
0002b0 b3 04 99 3d 28 21 61 3c c2 eb bd bd d2 bb 65 3d
       0.074715994 0.013740815 -0.09273483 0.056087323
0002c0 f4 f8 86 3c 9f 7c c9 bd b5 33 ca 3d ef f0 c4 bd
       0.016476132 -0.09838223 0.098731436 -0.09616267
0002d0 56 fe 04 3d 57 b8 90 3d 82 93 28 3d ec df 9d bc
       0.032469116 0.0706641 0.0411563 -0.019271813
0002e0 00 c1 09 3c d4 01 c8 bc df ff 80 3d dd 06 77 bd
       0.008407831 -0.024414934 0.062988035 -0.06030928
0002f0 42 ba bd bd cd 34 bd 3d 8a 04 a9 bd 8e ae a9 bd
       -0.092640415 0.092385866 -0.08252819 -0.08285247
000300 41 14 88 3d 93 2c 67 bd b4 d1 bd 3c 0d af a5 bd
       0.06644488 -0.056438994 0.023171283 -0.08090029
000310 ac f2 92 bc ca f8 47 bd 1f bc be bd 01 f9 ae 3d
       -0.01793798 -0.048821248 -0.09313225 0.085435875
000320 e8 70 92 bd b0 47 94 bd 1b 09 c7 bd 32 61 44 3d
       -0.071504414 -0.07240236 -0.097185336 0.047944255
000330 d7 de 32 bd 0d 8a ac 3d e4 60 ed 3c 30 13 b7 bb
       -0.043669548 0.084247686 0.028976865 -0.005587004
000340 c3 cd 55 bd f0 8a 80 bd 00 45 fb bc 70 74 8f bd
       -0.052198183 -0.062765 -0.03067255 -0.070046306
000350 37 90 64 bd b6 0e 06 bd e2 87 17 3d b7 13 aa 3d
       -0.055801596 -0.032728873 0.036994822 0.083045416
000360 ee d3 73 3d 8c d9 e7 bc 92 1c 41 3d 95 92 87 bd
       0.059528284 -0.028301977 0.047146387 -0.06619755
000370 40 11 3c bc 8d 19 90 3d 9a d4 5f 3d 13 9a 87 3d
       -0.011478722 0.070361234 0.054646112 0.06621184
000380 ec 38 85 bc e0 09 cb 3c 1e 50 7c 3d 7e 1c 90 bd
       -0.016262494 0.024784982 0.061599843 -0.070366845
000390 52 d8 3a 3d 93 5f bb bd fd 26 82 3d 4e e0 2b 3d
       0.045616455 -0.09149089 0.06355093 0.04196196
0003a0 22 b6 9a bd fc e5 d5 3c 4a b1 1e bd 40 9b bc bc
       -0.0755427 0.026110642 -0.038743295 -0.023023248
0003b0 f0 59 16 3c 7f ca b9 3d 42 e1 0d 3d cc 56 ad bc
       0.009176716 0.09071826 0.03463865 -0.021159552
0003c0 a8 4f e9 bc cc 58 ff 3c 40 85 cb bc 48 88 c7 3c
       -0.028480366 0.031170271 -0.024843812 0.024356976
0003d0 41 84 be 3d 95 af 9e 3d 89 ff a7 3d f1 56 a2 3d
       0.09302569 0.07748333 0.08203036 0.07926739
0003e0 9b 78 9b bd 4c bb ac bc 76 52 93 bd c8 17 f8 bc
       -0.07591363 -0.021085404 -0.071934626 -0.030284777
0003f0 2d 6b 99 3d b0 e8 8b 3b c2 df 1a 3d ea 41 a6 bd
       0.07491145 0.004269682 0.03781105 -0.08118041

ZmMx.bias f4 [100]
000000 c5 a7 a7 bd 1a c6 5a bd 70 d7 22 bc dc a5 fa 3c
       -0.081862964 -0.05341158 -0.00993906 0.030596666
000010 02 32 8e bd 13 26 a9 3d d8 86 b6 bc 0a e6 44 bd
       -0.06943132 0.08259215 -0.022281095 -0.048070945
000020 d4 6c b0 bc e0 69 da bc c0 f7 27 bc 1a 3d 1f bd
       -0.021536268 -0.026661813 -0.010251939 -0.03887663
000030 92 11 3a 3d 70 62 3d bd 30 09 7a bc cb b6 b8 3d
       0.045426913 -0.046236455 -0.0152609795 0.0901924
000040 ce b1 92 bd b7 1f 20 bd ac d2 ae bc 3f ea ab 3d
       -0.0716282 -0.039092746 -0.02134069 0.08394288
000050 de 0e 9b bd ed 0a 41 bd 99 24 b9 3d 80 cb d5 3a
       -0.07571195 -0.04712956 0.090401836 0.0016311258
000060 62 8f b1 bd 00 07 ff 3b 07 30 ac 3d f2 0d 4d 3d
       -0.08669926 0.007782817 0.08407598 0.050062127
000070 ec ab 12 bd 58 82 bf bc 54 2e 0e bd 39 87 c3 3d
       -0.03580849 -0.023377582 -0.03471215 0.09547276
000080 00 15 54 3c bc 37 8a bd 90 95 62 bc d8 b3 af bc
       0.01294446 -0.06748912 -0.013829604 -0.02144806
000090 90 4f 7f 3c cd df 87 bd 87 ab 73 bd d2 f6 23 3d
       0.015582934 -0.066344835 -0.059489753 0.040030308
0000a0 10 13 2c bd cf f6 c1 bd cf 67 c8 3d 28 cb 12 3c
       -0.042010367 -0.09470903 0.09785425 0.008959569
0000b0 76 18 61 3d cd 6a cb 3d 6a 61 59 bd 75 5d b4 bd
       0.05495497 0.0993248 -0.053071417 -0.08806888
0000c0 4a 4f 24 3d 2b 94 9e 3d 2a 9f 3a 3d 95 49 c5 3d
       0.04011468 0.077431045 0.045561947 0.09633175
0000d0 cc 78 f6 bc 60 9a 54 bd 00 32 bd 3a a7 73 86 3d
       -0.030086897 -0.051905036 0.0014434457 0.06565028
0000e0 d9 00 93 3d 00 47 3e 3b 73 ff 70 bd b2 39 3f 3d
       0.07177896 0.0029034019 -0.058837365 0.046685882
0000f0 28 5d a9 3c fa cf 9d bd c8 20 a6 3c 0d dd 9a bd
       0.020674303 -0.07705684 0.020279303 -0.07561693
000100 ac 53 da 3c be 2b 63 3d 15 05 ba 3d c8 2e 9f bc
       0.026651226 0.055461638 0.090830006 -0.019431487
000110 b0 97 79 bc 80 ad 24 3c 94 45 b6 bc 11 34 a7 3d
       -0.015233919 0.010051131 -0.022249974 0.08164228
000120 f6 db 20 3d 80 e5 b9 3a 40 14 23 bc 52 e5 65 3d
       0.03927227 0.0014182776 -0.009953558 0.0561269
000130 90 f1 35 bc b1 cd b8 3d 0a 99 0d bd 73 eb c7 3d
       -0.011104956 0.090236075 -0.034569778 0.09761705
000140 7e e8 12 3d 7b 2e 98 3d 04 74 ff 3c 20 ab 71 bd
       0.035866253 0.074307404 0.03118325 -0.05900109
000150 26 fc 97 bd 35 fa c5 3d 61 20 ca 3d 18 b3 61 3c
       -0.074211404 0.09666864 0.09869457 0.013775609
000160 74 a7 94 bc f1 77 a8 3d 60 89 58 bd 9b 78 82 3d
       -0.018146254 0.08226002 -0.052865386 0.0637066
000170 b2 50 5f 3d 53 f7 c7 bd d9 2d c6 3d 50 1d e4 3b
       0.054520316 -0.0976397 0.096767135 0.006961502
000180 53 c3 2c bd e6 90 0d bd 57 24 bc 3d 62 e3 41 3d
       -0.042178463 -0.034562014 0.09186619 0.04733599

fc2.weight f4 [100, 100]
000000 5a f0 1a 3d 4d 7e 74 bd d2 ff 56 3d 37 75 a7 3d
       0.037826873 -0.059690762 0.052490063 0.08176654
000010 59 0d 8d 3d 71 95 bf 3d c0 1a 07 3c 73 02 32 bd
       0.068873115 0.093546756 0.008246124 -0.043459367
000020 e6 e8 41 3d 8c 2b c1 3c ca 4c 4a bd 28 18 bf bd
       0.04734125 0.023580335 -0.049389638 -0.09330779
000030 e7 38 ad bd d2 e1 bb bd 40 78 3f bb ea 31 0f 3d
       -0.08458119 -0.09173931 -0.0029215962 0.03495971
000040 a8 e0 8e bd a1 0e 97 3d c0 8d 3e bc 11 6b 86 3d
       -0.069764435 0.07375837 -0.0116304755 0.0656339
000050 98 e7 09 bc ed 38 1b bd c8 4d ea bc f0 80 20 bc
       -0.008417033 -0.037896086 -0.028601542 -0.009796366
000060 d7 82 40 bd 1b a9 a8 3d 29 80 a8 3d c6 85 39 3d
       -0.04699978 0.08235379 0.082275696 0.045293592
000070 27 d8 4f bd 5a 9d 5f 3d aa 2b ac bd 6a 61 18 bd
       -0.05074325 0.05459342 -0.08406766 -0.037202276
000080 9d bd bf 3d 42 45 27 3d 34 fa 09 bd 11 0e a4 3d
       0.09362338 0.040837534 -0.033685878 0.080104955
000090 54 db fb bc c0 10 98 bd 14 06 01 bd c0 8e 1e 3b
       -0.030744232 -0.0742507 -0.031499937 0.0024193972
0000a0 e0 aa 8a 3c 36 e9 05 bd a0 a9 6d bb 6a 16 93 bd
       0.016927183 -0.03269311 -0.0036264434 -0.071820095
0000b0 d2 f9 17 3d 30 6b 32 bd 08 74 c8 3c c3 11 91 3d
       0.03710348 -0.043559253 0.02446939 0.07083466
0000c0 cb 38 a3 3d aa 8a 1c 3d 70 ec 39 bd 28 39 d4 bc
       0.07969817 0.038218178 -0.0453915 -0.02590616
0000d0 e5 b9 c0 3d a8 7a 1f 3c fa 7d 6c 3d c7 ac ab 3d
       0.094104566 0.009733833 0.057737328 0.08382564
0000e0 00 5e 60 3b 81 9c c0 3d ec 66 d9 3c a8 77 8e 3c
       0.0034235716 0.09404851 0.026538335 0.01739104
0000f0 10 c9 b8 bd 00 24 14 bc 35 d0 9e 3d d8 32 39 bc
       -0.09022725 -0.009041786 0.07754556 -0.011303626
000100 90 12 46 bc f0 b4 59 bd 29 60 b1 3d 1a 53 02 bd
       -0.012089387 -0.05315107 0.08660919 -0.031817533
000110 00 6a 4b 3c 4c 5e f2 3c 78 3a d8 bc 94 b3 b7 bc
       0.012415409 0.02958598 -0.026395068 -0.022424497
000120 2a 34 33 3d 11 18 c7 3d 70 f8 5e bd 5e 6b 55 3d
       0.04375092 0.09721387 -0.054436147 0.052104346
000130 97 b8 b6 3d 00 a2 ed bb 60 fc f9 3b e6 47 85 bd
       0.089219265 -0.007251978 0.0076289624 -0.06507854
000140 50 0a ea 3b b5 1e 9c 3d 79 d3 95 3d 40 11 c8 3c
       0.0071423426 0.076230444 0.07315726 0.024422288
000150 8c f9 ca bc ba d3 8a bd 43 f0 c5 3d 40 e7 21 bd
       -0.024777196 -0.06778665 0.09664967 -0.039527178
000160 94 d2 c8 bc a5 d4 a0 3d b3 74 6a bd 45 f4 b7 bd
       -0.024514474 0.07853059 -0.0572402 -0.089821376
000170 a8 e8 d7 bc 94 7f 8a 3c 8e 69 97 bd 10 23 7f bd
       -0.026356056 0.016906537 -0.0739318 -0.062289298
000180 00 ad e9 3b 3c ea ef 3c f4 a9 8e 3c 98 bc 63 bc
       0.007131219 0.029286496 0.017415024 -0.013899945
000190 82 3a c0 bd 34 81 ef bc 8e a7 9f bd 08 23 8f bd
       -0.093861595 -0.029236414 -0.077956304 -0.069891036
0001a0 de 26 60 3d 80 a9 cb bc 62 ee 7a 3d aa 38 2b bd
       0.054724567 -0.024861097 0.061262496 -0.041802086
0001b0 ab ae ab 3d fa e4 08 3d 45 92 a8 bd ad f3 c8 bd
       0.08382925 0.033421494 -0.08231024 -0.098121025
0001c0 7a 45 75 3d 22 4e 5a 3d 44 60 e0 3c 6b e1 a1 3d
       0.05988071 0.05329717 0.027389653 0.07904323
0001d0 16 ee 3e 3d b0 24 5b bd 0a c6 c2 bd b4 be b9 3c
       0.046613775 -0.053501785 -0.09510429 0.022673942
0001e0 b0 e2 7b 3c 1a f5 91 bd a0 e7 c0 bc e0 f1 bb 3c
       0.015373871 -0.071268275 -0.023547947 0.022942483
0001f0 76 a0 16 3d bd 06 5b bd 6e 50 81 bd 6c 16 94 bc
       0.03677412 -0.053473223 -0.06314169 -0.018077098
000200 80 7f 9b bb 59 60 8f 3d 80 b4 a0 3c 50 b8 34 bd
       -0.004745424 0.07000799 0.01961732 -0.044121087
000210 28 86 a0 3c a0 67 82 3b 73 f3 b7 bd d3 2a 3a bd
       0.01959522 0.003979638 -0.08981981 -0.045450997
000220 62 48 5b 3d a0 0a 00 bd 67 0d 86 3d 96 91 46 3d
       0.053535827 -0.031260133 0.06545525 0.048478685
000230 c5 9c c8 bd 07 39 61 bd e0 bd a8 3c a3 9d b4 bd
       -0.097955264 -0.054986026 0.020598352 -0.08819129
000240 df 9a b4 3d 6e 3e 5f 3d 45 82 ab 3d b4 c0 fa bc
       0.08818602 0.054502897 0.08374456 -0.030609466
000250 c0 88 3a 3c 23 9c 7d bd e9 52 9e 3d d1 7b a5 3d
       0.011385143 -0.06191648 0.077306576 0.08080257
000260 55 55 c0 3d 97 68 63 bd 40 db 85 ba d0 d5 60 bd
       0.09391276 -0.055519667 -0.0010212436 -0.054891407
000270 30 d0 9c 3b 48 d0 bf bc e8 36 85 bc f0 6e a2 bd
       0.00478556 -0.023414746 -0.016261533 -0.07931316
000280 4a b4 ba bd d4 29 d4 3c 70 58 4a bc f8 a5 9d 3c
       -0.09116419 0.025898851 -0.012350187 0.01924418
000290 43 a6 68 bd 93 17 a9 bd 48 9c b8 bd c3 ca a5 bd
       -0.056799185 -0.082564496 -0.09014183 -0.08095314
0002a0 f6 33 07 3d b0 22 67 bc 98 48 a2 3c 84 8d d6 3c
       0.03300854 -0.014107391 0.019810006 0.026190527
0002b0 e1 dd b1 3d 40 f2 9d bc 50 b3 75 bd aa 5e 56 3d
       0.08684898 -0.019280553 -0.05998546 0.052336372
0002c0 ba 87 5f 3d 40 c0 36 bd 5a c6 44 3d 6b b5 8a 3d
       0.0545728 -0.044616938 0.048040725 0.06772884
0002d0 e3 2e 69 bd 3a 5f 42 bd e8 26 cb bc 20 9d 74 bd
       -0.05692948 -0.047454096 -0.024798825 -0.05972016
0002e0 e5 3d 9e 3d f0 73 33 bd 3e 69 98 bd 28 11 25 bc
       0.07726649 -0.04381174 -0.07441948 -0.010074891
0002f0 1f d7 98 3d 78 98 bd bc 28 68 f0 bc a2 90 4d 3d
       0.07462906 -0.023143992 -0.02934654 0.05018676
000300 f7 03 1b bd b2 ba 3e 3d 12 8b 5f 3d a8 3d 33 3c
       -0.037845578 0.046564765 0.054575987 0.010939993
000310 88 d0 c1 3c ac 10 85 bd 90 e2 4c 3c 86 35 5d 3d
       0.023659006 -0.064973205 0.012505189 0.054006122
000320 1e af 0e 3d a8 06 d3 bc 28 77 04 bc 70 30 25 bc
       0.034834974 -0.02576001 -0.00808505 -0.010082349
000330 2c a7 c1 3c 62 31 74 3d c6 20 4d 3d 70 42 07 3c
       0.023639284 0.059617408 0.050080083 0.008255586
000340 00 71 47 3a a0 b7 d7 3b e8 45 c3 bd 51 49 84 3d
       0.0007608086 0.006583169 -0.09534818 0.064592965
000350 e0 68 5d bd 88 eb 82 bc 79 f8 83 3d 40 16 3d 3b
       -0.054055095 -0.01598145 0.06443877 0.0028852373
000360 70 61 75 3c 4e e8 51 3d e3 6b 7a bd f4 ad c1 3c
       0.014976844 0.051246934 -0.061138045 0.023642518
000370 0e 17 a4 bd 96 0c 8b bd 72 f0 7f 3d 69 4e 9f 3d
       -0.0801221 -0.0678951 0.062485166 0.077786274
000380 a6 f5 09 bd 50 2d 7a 3c 80 8c e0 3b 00 a8 f8 b8
       -0.033681534 0.015269592 0.0068526864 -0.00011856854
000390 2c bb a4 3c ac ff c8 3c cc 3e 9f bc 1e 99 6a 3d
       0.020108782 0.024535976 -0.019439124 0.05727493
0003a0 d5 0c 8d 3d 23 73 8b 3d 20 2b aa 3b a6 75 0c 3d
       0.06887213 0.0680907 0.005193129 0.034291886
0003b0 ca 1b 55 3d e4 5b 12 bd b9 12 b1 3d 77 9d ac 3d
       0.052028455 -0.035732165 0.08646149 0.084284715
0003c0 7b b0 ae 3d 50 d9 86 bd 84 2e 83 bd 97 53 49 bd
       0.08529755 -0.06584418 -0.064053565 -0.049151983
0003d0 ed 23 c9 bd c7 c7 c9 bd 33 6d 91 bd d8 41 c8 3c
       -0.098213054 -0.09852558 -0.07100906 0.02444546
0003e0 a1 1b bf 3d e8 8d 38 bc d8 94 aa bc c0 12 2d bd
       0.09331442 -0.011264302 -0.020822927 -0.04225421
0003f0 28 94 cf bc fe ac 4f 3d aa 35 77 bd ca 45 68 bd
       -0.025339201 0.050702088 -0.060353912 -0.05670718

fc2.bias f4 [100]
000000 6c 3a ab bc ac 5f cb bc 00 67 8d 3b 36 fb 6e 3d
       -0.020901881 -0.024825893 0.004315257 0.058345042
000010 b2 9b 12 3d da 4e 6d 3d 4f b0 c1 3d 0e 54 00 3d
       0.035793014 0.057936527 0.09457456 0.03133016
000020 8f b4 94 3d b0 0b 0e bc 72 5e 5c 3d 9b 70 a8 bd
       0.07261001 -0.008669779 0.053801008 -0.08224603
000030 47 75 3a bd 0b b7 a2 bd e4 6f df 3c b0 d6 73 3c
       -0.045522 -0.07945069 0.027275033 0.014882728
000040 00 6f 4f ba 60 95 66 bb 88 6a 94 bc 88 5e c6 3c
       -0.00079129636 -0.003518425 -0.018117204 0.024214998
000050 74 b4 90 3c ef 1b 92 3d 1f 5a 92 3d 8a 16 81 bd
       0.017664172 0.07134234 0.071460955 -0.06303127
000060 ef fd b2 bd 3b 4e b4 3d 02 9e 56 3d 78 06 cb bd
       -0.0873984 0.08803984 0.05239678 -0.09913343
000070 3b 7a 99 bd 50 41 fc bb bf 6c 96 3d 0d dd 7e bd
       -0.07494017 -0.0076982155 0.073449604 -0.06222253
000080 09 7b c2 3d b0 3d 71 3c 52 4c 7e 3d da df 2b bd
       0.09496123 0.01472418 0.062084503 -0.04196153
000090 68 0c c0 bc 00 9b 23 bb e7 8d 76 bd 98 80 ff bc
       -0.023443416 -0.0024964213 -0.060193922 -0.031189248
0000a0 40 f8 09 bd 60 55 6b bd 66 f5 22 3d 3d cc 5a bd
       -0.033684015 -0.057454467 0.03978481 -0.053417433
0000b0 80 8b c1 bc 32 be 4d 3d 08 e3 95 3c 6e af 1a 3d
       -0.02362609 0.050230213 0.018296733 0.03776496
0000c0 03 56 65 bd 80 94 24 3c b0 70 a1 bd 10 ce 46 bd
       -0.05599023 0.010045171 -0.078828216 -0.04853636
0000d0 1d 36 b8 bd d3 04 6f bd e5 cb b6 bd 1a 13 cc bd
       -0.08994696 -0.05835421 -0.089256085 -0.09964581
0000e0 ca f6 64 bd a7 79 c5 3d 83 5d 4e bd e3 7a 62 bd
       -0.05589942 0.09642344 -0.05038215 -0.055292975
0000f0 0c 6a a2 3c 00 90 47 39 33 fa bc bd 6a 9a 5e 3d
       0.019825958 0.00019031763 -0.09227409 0.05434648
000100 15 22 b0 3d 40 48 0e bd 52 8d 05 3d 36 d5 9f bd
       0.08600251 -0.03473687 0.032605477 -0.07804339
000110 90 7a 69 3c 40 03 9f 3a 0f e6 a6 3d c2 dd 15 3d
       0.014250413 0.0012131706 0.08149349 0.036588438
000120 e6 1a 63 3d a6 9f 00 bd 40 af 92 bd d0 63 2e 3c
       0.055445574 -0.031402253 -0.071623325 0.010643914
000130 f3 4c ad bd dd 0b 91 3d 5e 8f 6d 3d 8e 87 15 3d
       -0.084619425 0.07082341 0.057998054 0.03650623
000140 1a e7 0e bd b2 9f 94 bd 37 6d b4 bd a8 b8 9c 3c
       -0.034888364 -0.07257022 -0.088098936 0.01913102
000150 28 3d c1 bc 8a 2f 45 bd a8 be 20 3c c9 2d aa 3d
       -0.023588732 -0.04814104 0.009811081 0.08309514
000160 6a fd 75 bd c0 5d bf bc 2d 4d aa bd 04 09 87 bd
       -0.060056128 -0.023360133 -0.08315501 -0.065935165
000170 d0 d9 7f bd 99 40 80 3d 92 7e 1d 3d 66 2a 67 3d
       -0.06246358 0.06262321 0.038450785 0.05643692
000180 a4 51 05 bd 93 0c 99 bd 7a 6a 8d bd 18 03 ac bd
       -0.03254856 -0.074731015 -0.069050744 -0.083990276

fc3.weight f4 [100, 100]
000000 61 64 c7 3d e0 55 cc 3b 7d d1 68 bd 1b bc bd bd
       0.09735943 0.006235823 -0.05684041 -0.09264394
000010 4a 62 28 3d 53 21 a5 3d 8c 1a 83 bd ea 39 c1 bd
       0.04110936 0.08062997 -0.06401548 -0.09434874
000020 f8 32 fc bc 2e 74 4d 3d aa 81 48 3d 08 0a ed bc
       -0.030786023 0.050159626 0.048951782 -0.028935447
000030 4a 31 1d bd 06 81 14 3d 63 c2 ae bd c8 0d 83 bc
       -0.038377084 0.03625586 -0.0853317 -0.015997782
000040 43 91 b7 3d a1 5e 9e 3d 9f 61 a4 3d fd ed b3 3d
       0.08963253 0.07732893 0.08026432 0.08785627
000050 3e bf 17 3d f2 4d 2a 3d 40 19 17 bd 9d ad 9e 3d
       0.037047617 0.04157824 -0.036889315 0.07747958
000060 00 f0 d9 3a 60 c9 28 bb 60 e2 e7 bc 74 0c e4 bc
       0.0016627312 -0.0025754794 -0.028306186 -0.02783797
000070 2c 8b 9f 3c 11 a0 92 3d b9 ab a9 3d c2 f1 1f 3d
       0.019475542 0.071594365 0.082847066 0.039048918
000080 40 34 15 bd 19 a0 b5 3d bd 5f 98 bd 60 7f 22 3b
       -0.036426783 0.08868427 -0.07440136 0.002479516
000090 46 24 22 3d 92 da 25 3d 72 27 95 bd 80 aa 28 bd
       0.039585374 0.040491648 -0.07282914 -0.041178226
0000a0 57 32 b7 bd 2a 59 8a bd cb 02 9f 3d 55 6a 84 3d
       -0.089451484 -0.06755288 0.077642046 0.06465594
0000b0 10 49 5e 3c c0 d8 7d 3b e3 9a b1 bd 6d 95 a7 bd
       0.013567224 0.003873393 -0.086721204 -0.081827976
0000c0 08 8e c8 3c 8c e3 ff bc 4a c4 83 bd e0 19 a1 bc
       0.024481788 -0.031236432 -0.064339235 -0.019665658
0000d0 c9 db 83 3d 34 be 8c bc 00 5c 84 3b 58 82 e5 bc
       0.06438405 -0.01718054 0.0040392876 -0.028016254
0000e0 cd 3d 7b bd c8 c2 a2 bd b7 59 3e bd f8 66 9b bd
       -0.061338235 -0.07947308 -0.046472277 -0.07587999
0000f0 67 0e 3f bd 0d 5a 47 bd 21 7b 8b 3d f7 8a b6 bd
       -0.046644595 -0.048669863 0.06810594 -0.08913224
000100 3a 80 67 3d d2 1d 72 3d a4 c4 13 bd e6 c0 71 3d
       0.05651877 0.05911047 -0.036076203 0.059021853
000110 68 07 53 bc d1 44 a7 3d 47 76 bd bd d2 a9 96 bd
       -0.012880184 0.081674226 -0.09251075 -0.073566094
000120 20 4a 98 bc d0 c4 c8 bb 79 3c ca 3d 97 75 91 3d
       -0.018590033 -0.0061269775 0.098748155 0.071025066
000130 6a 86 45 3d c0 e9 e1 bc 5d 7e 95 bd cd f3 52 bd
       0.04822389 -0.027577281 -0.072994925 -0.051502038
000140 d0 d6 4d bc 09 5b c0 3d 5d ce 44 bd c0 fb be bc
       -0.012563422 0.093923636 -0.048048366 -0.023313403
000150 62 45 80 bd c8 22 fc bc 01 94 81 3d 4d e7 b1 bd
       -0.06263234 -0.030778304 0.06327058 -0.08686695
000160 05 8e 9c 3d 59 f9 a9 3d bd 37 cb bd 43 9c 54 bd
       0.076442756 0.082995124 -0.099227406 -0.051906835
000170 6c 00 14 bd 97 2c 82 3d 41 18 82 3d 57 ef 9e 3d
       -0.036133215 0.06356161 0.06352282 0.07760494
000180 01 ed ac 3d 88 b7 b8 bd 70 bf 3e 3c a8 a4 b4 bc
       0.084436424 -0.09019381 0.011642322 -0.02205117
000190 1d 10 38 bd cb 11 a1 3d 0c 89 ea bc 60 8e de bc
       -0.04493724 0.07864722 -0.028629802 -0.027167499
0001a0 68 8e 85 bd 6d a3 c2 bd 40 6f 82 bc ac 85 b7 bc
       -0.065213025 -0.09503827 -0.015922189 -0.022402607
0001b0 b6 ea 65 3d c9 8e ca 3d 28 66 a4 bc 40 aa 0c bb
       0.05613204 0.09890515 -0.020068243 -0.0021463782
0001c0 e2 c1 02 3d a0 f4 b8 bc 00 be 39 bb 16 26 01 3d
       0.031923182 -0.022577584 -0.0028342009 0.031530462
0001d0 0c bf 86 bc d5 7f 8a 3d c7 fb 35 bd 70 2d 2d 3c
       -0.01644852 0.06762663 -0.044429567 0.010569915
0001e0 2c cf 8e 3c 4a 2d 18 3d a8 43 82 3c d6 df 65 3d
       0.017432772 0.037152566 0.015901402 0.05612167
0001f0 20 77 ea bb 63 89 99 bd bb 74 a5 3d b2 ad 05 3d
       -0.007155314 -0.074969076 0.08078905 0.032636352
000200 62 be 71 3d 51 a7 81 3d c0 8b 60 3b 7d 02 23 bd
       0.059019454 0.06330741 0.0034262985 -0.039797295
000210 68 1a 15 3c f1 24 ba 3d 20 04 99 3b 93 a9 a7 3d
       0.009100534 0.09089077 0.004669681 0.081866406
000220 1b dd 9f 3d e8 57 81 3c 34 c0 ab bc 89 6b b8 3d
       0.078058444 0.015788987 -0.020965673 0.09004886
000230 e2 56 57 3d 97 30 70 bd c3 ac 99 bd 0a 7e 98 bd
       0.052573092 -0.05864009 -0.07503655 -0.07445915
000240 e1 16 a3 3d 46 1d 0e 3d 48 0d 98 3c 68 9a b1 bc
       0.07963348 0.034695886 0.01856102 -0.021680072
000250 4c 8c e5 3c 6a 75 66 3d ff da 81 3d 93 59 b7 bd
       0.028021 0.05626432 0.06340598 -0.08952632
000260 50 e4 65 bd 8b d5 ae bd 03 22 31 bd 18 ad bc bc
       -0.05612594 -0.08536824 -0.043245327 -0.023031756
000270 16 5d 5e 3d d8 42 23 3c 37 e1 93 3d e8 5f 61 3c
       0.054287992 0.009964667 0.07220691 0.013755776
000280 43 08 cb bd 30 07 3d bd c9 4f a7 3d 76 58 2e 3d
       -0.09913685 -0.046149433 0.08169515 0.04256483
000290 88 d4 a7 bc a0 08 ca 3c 4f c3 b7 3d 43 61 42 bd
       -0.020487085 0.024662316 0.08972799 -0.047456037
0002a0 08 8b b8 bc 12 ca 19 3d 00 5f 63 3a ca 2c a4 bd
       -0.022527233 0.037546225 0.0008673519 -0.08016355
0002b0 b6 24 6c 3d 17 5a 9d 3d cc af bd 3c b6 f4 92 bd
       0.057652198 0.07683199 0.023155116 -0.07175581
0002c0 42 66 94 bd a5 9f b2 bd 38 e5 8a 3c 3e f2 8e bd
       -0.07246067 -0.08721856 0.016955003 -0.06979798
0002d0 ad 35 b0 bd e1 8f ae 3d e4 da ff 3c 6b 43 c9 3d
       -0.08603988 0.085235365 0.031232305 0.09827312
0002e0 63 78 86 3d 8a ac 51 3d 50 6f 26 bd 22 d8 53 3d
       0.06565931 0.051189937 -0.0406335 0.051719792
0002f0 b4 ad c6 3c e0 35 ad 3b ad 56 cc bd 9b 4f a1 3d
       0.02425275 0.0052859634 -0.099774696 0.07876512
000300 a0 1d ad bb c7 78 be bd 98 16 46 3c 4d 18 48 bd
       -0.0052830726 -0.0930038 0.012090348 -0.0488513
000310 93 80 4f bd 70 1b 6d bd 40 16 09 3b b0 18 8e 3b
       -0.050659727 -0.057887495 0.0020917803 0.004336439
000320 76 64 3f 3d 60 18 e5 3b b4 e0 f0 3c f5 9b b4 3d
       0.046726666 0.006991431 0.029404022 0.08818809
000330 38 2c b9 bd 40 da 66 bd b0 7b f3 3b 50 36 77 bc
       -0.09041637 -0.056360483 0.007430516 -0.015088633
000340 4f a2 b4 3d 34 f0 e6 bc 3c 69 f6 3c d4 53 ba bc
       0.088200204 -0.02819071 0.030079477 -0.02274505
000350 e3 80 35 bd c0 97 e6 bc 62 63 6e 3d c2 96 2d 3d
       -0.04431237 -0.028148532 0.058200248 0.042380102
000360 7e ff 4d 3d 8c 91 cd 3c 59 17 a1 3d a9 3d ca 3d
       0.050292484 0.025093816 0.07865781 0.09875042
000370 e0 2b db 3b fb a1 be bd f0 59 27 bc 1a a7 15 bd
       0.00668858 -0.09308239 -0.010214314 -0.036536314
000380 10 53 79 bd 8d de 72 bd 78 93 b7 bc 89 af c9 3d
       -0.06087023 -0.059294272 -0.022409186 0.09847934
000390 fa 46 48 bd fe 01 38 3d e8 28 1b 3c 28 62 30 bc
       -0.048895814 0.044923775 0.009470202 -0.01076559
0003a0 23 b5 93 bd c0 2a 5e 3b e1 50 b3 3d a2 82 48 3d
       -0.072122835 0.0033899993 0.08755661 0.048952706
0003b0 fe b1 9e bd 12 18 6a 3d 08 92 cc bc 00 58 12 3c
       -0.07748793 0.05715186 -0.024971977 0.008932114
0003c0 61 43 84 3d e7 1a cc bd d4 6e ca 3c ec 0d 83 bc
       0.06458164 -0.09966069 0.02471105 -0.01599785
0003d0 3a 3c 14 bd e0 33 f4 bb 00 20 1b 39 da 22 bc bd
       -0.03619025 -0.007452473 0.00014793873 -0.09186335
0003e0 f0 b6 7e bc 4e 88 76 3d a8 d9 b1 3c c7 c0 cc 3d
       -0.015546545 0.060188584 0.021710232 0.09997707
0003f0 94 f5 92 3c a9 1b c6 3d d8 ff b9 bc d3 f5 a0 bd
       0.017939366 0.096732445 -0.022705004 -0.07859387

fc3.bias f4 [100]
000000 30 c7 0a bc 37 eb cb bd 86 88 3a 3d 45 09 98 bd
       -0.008470342 -0.09956973 0.045540355 -0.07423643
000010 35 c7 c3 3d 60 0f ed 3b 2c 9d bd 3c 28 fe 52 bc
       0.0955948 0.007234499 0.023146234 -0.012877978
000020 c7 98 35 bd 23 ed 9a bd d1 8c b2 3d f9 10 b3 3d
       -0.044335153 -0.075647615 0.08718265 0.08743472
000030 c0 c0 35 3c 88 eb b4 bc a0 a9 96 bd bb 58 b4 bd
       0.011093318 -0.022084966 -0.07356572 -0.088059865
000040 10 5d 87 bd fc 10 08 bd c9 4b a9 3d 60 e1 bb bb
       -0.06609547 -0.033219323 0.08266408 -0.005733654
000050 57 88 bc bd 8e 27 0a 3d 65 0f 85 3d f7 b9 1e bd
       -0.09205692 0.03372913 0.06497077 -0.03875157
000060 70 fd 95 bd e8 d9 98 3c 66 eb 58 3d 76 ee a9 bd
       -0.0732373 0.018658593 0.05295887 -0.08297436
000070 fc e0 d3 3c 28 77 7c bc 11 34 a4 3d 60 15 8d 3b
       0.025864117 -0.015409268 0.080177434 0.0043055266
000080 a0 d8 db bb c0 a2 e4 bc 40 72 bf bd a8 10 e3 bc
       -0.0067091733 -0.027909636 -0.09347963 -0.027717903
000090 28 ea 1c bc ed 61 24 bd 42 ad 2b 3d b7 d4 40 bd
       -0.009577312 -0.04013245 0.04191328 -0.04707786
0000a0 c2 b8 55 3d 51 ab a0 3d 4a 93 b3 bd 70 81 6e bc
       0.052178152 0.07845176 -0.087683275 -0.0145572275
0000b0 0d 9a 6b bd 61 24 ae 3d 77 d3 a3 3d f9 52 ca 3d
       -0.05751996 0.085030325 0.07999318 0.09879107
0000c0 7a 36 42 bd 58 e3 ff bc 4d 97 b6 bd 01 db 9d 3d
       -0.047415234 -0.031236336 -0.08915577 0.07707787
0000d0 60 55 01 3b ca 20 6c bd 10 e8 73 bd df 60 ae bd
       0.0019734725 -0.057648458 -0.059547484 -0.085145704
0000e0 f2 09 a7 bd 6c 69 ed bc 2a 63 03 3d d0 ea 22 3c
       -0.08156194 -0.028980933 0.032076992 0.009943679
0000f0 42 6e 49 3d 93 b8 a6 bd e5 e5 89 bd 15 8a 9e 3d
       0.049177416 -0.081406735 -0.06733302 0.07741181
000100 17 16 82 3d 45 c7 cc bd 39 10 99 3d 49 86 99 3d
       0.063518696 -0.09998945 0.07473797 0.07496316
000110 93 46 a8 3d 4b c1 bf bd 54 69 96 bc fb d9 bc bd
       0.08216586 -0.093630396 -0.018360771 -0.09221264
000120 03 7e bf bd a8 e3 c7 bd a6 25 6b 3d 26 17 38 3d
       -0.09350207 -0.09760219 0.05740895 0.04494395
000130 eb 52 ca 3d 3a 69 7a 3d 53 e2 4b bd 70 bd 56 3c
       0.098790966 0.061135508 -0.049776386 0.013106689
000140 1a 67 2a bd d1 74 86 3d 7b d4 90 bd a0 4f ba bd
       -0.04160223 0.0656525 -0.070717774 -0.090972185
000150 c0 29 24 bc b0 aa 51 3c 5a ef 68 3d 61 9e c2 3d
       -0.01001972 0.012797043 0.05686889 0.09502865
000160 56 3c 3e 3d 77 a5 b4 bd d6 cd 64 3d da fa 48 3d
       0.04644426 -0.088206224 0.055860363 0.049067356
000170 40 15 42 3b c4 8a fa 3c ea 40 1a bd f7 92 b3 bd
       0.0029614717 0.030583747 -0.037659563 -0.08768266
000180 3f 9f c7 bd 8a ab 0f 3d d8 83 03 3c 98 4a af 3c
       -0.09747171 0.0350757 0.0080270395 0.021397874

fc4.weight f4 [100, 100]
000000 7a b9 1e 3d 11 15 ac 3d 98 4d 20 3c ac 61 8b 3c
       0.038751103 0.084024556 0.009784125 0.017014347
000010 17 3d 92 3d 86 20 63 3d 2a 96 55 bd 38 9c a4 3c
       0.07140558 0.05545094 -0.05214516 0.020094022
000020 38 63 89 3c f0 e3 0b 3c 31 d3 c2 3d 04 ae d9 3c
       0.016770944 0.008538231 0.09512938 0.026572235
000030 75 40 83 bd 02 52 1c 3d b6 47 7d 3d f7 3c c8 3d
       -0.064087786 0.038164146 0.061835967 0.09777253
000040 d4 a4 ce 3c ea 83 24 3d 0c f6 81 bd cc 2c ca bc
       0.02522508 0.040164866 -0.06345758 -0.024679564
000050 80 92 31 3c 58 73 2d bc 60 f5 82 3c ca 98 0d 3d
       0.010838151 -0.010586582 0.015986145 0.03456954
000060 89 7c c9 3d a9 3f c0 3d 45 fd a1 3d e4 17 e2 3c
       0.09838206 0.09387142 0.079096355 0.027599283
000070 07 30 87 3d 50 82 90 bb d8 e7 49 bc 66 5c 87 bd
       0.06600957 -0.0044100657 -0.012323342 -0.066094205
000080 ea cf c8 bd 92 1d ca bd 4a b9 0f 3d 57 84 bf 3d
       -0.098052815 -0.09868921 0.035088815 0.09351414
000090 18 0c 96 bc a0 04 11 3b d0 23 26 bc 75 9e c8 3d
       -0.018316314 0.0022128 -0.010140374 0.09795848
0000a0 a8 5d c5 bd 59 95 b7 3d a8 43 f9 bc 34 c1 b3 bc
       -0.09637004 0.08964033 -0.030427769 -0.021942712
0000b0 79 3d a6 3d ab 0f 96 3d ea 60 a0 bd 60 2b 0d bd
       0.08117194 0.07327207 -0.07830985 -0.034465194
0000c0 ac c1 9a bc 28 c4 09 bc b0 53 dc 3b 4c 7a ae bc
       -0.018891178 -0.008408584 0.0067238435 -0.02129855
0000d0 7f 2f ae 3d e0 5f 81 bc ac f8 ac 3c a5 a8 a5 bd
       0.08505153 -0.015792787 0.02111467 -0.08088807
0000e0 9d 2a 8a bd cc d9 b6 bc 6c bb 8e 3c 82 5b c2 bd
       -0.06746409 -0.02232065 0.017423354 -0.0949011
0000f0 60 4e ff 3b 15 d7 b0 bd 3d 70 76 bd bf c3 a6 3d
       0.0077913254 -0.08634774 -0.060165633 0.08142804
000100 60 04 b5 bc 08 e1 f5 bc 07 eb 78 bd bf f6 95 3d
       -0.022096813 -0.03001453 -0.060771015 0.07322454
000110 96 a1 12 3d 00 1b 01 bd b3 49 97 3d 5a b0 0a bd
       0.03579863 -0.03151989 0.07387104 -0.03385959
000120 40 a8 a0 bd 4e 8a 53 3d 0a 1e 22 bd 8f 43 ba 3d
       -0.07844591 0.05164557 -0.03957943 0.09094917
000130 ce 94 03 3d c0 63 6f 3c ac 4a e5 bc c6 c0 11 3d
       0.032124333 0.014611185 -0.027989708 0.035584234
000140 68 a4 ba bd 48 67 aa bc 58 a6 ac bc 94 e2 02 bd
       -0.09113389 -0.020801201 -0.021075413 -0.031954363
000150 30 cb 45 bc a1 ca b8 3d f2 cc 15 3d 64 c2 dc 3c
       -0.012072369 0.090230234 0.036572404 0.026948161
000160 80 fa bc 3c 55 b3 87 bd 99 d5 b9 3d 8a 15 b6 bd
       0.023068666 -0.06626002 0.09073944 -0.08890827
000170 30 aa 41 bd ee 40 38 3d 30 89 5d bc d1 7d a5 3d
       -0.047281444 0.044983797 -0.013521478 0.08080638
000180 93 e0 1f bd 71 54 8f 3d d0 8d 1a bd a0 81 ec bc
       -0.03903253 0.06998528 -0.0377329 -0.028870404
000190 13 11 b3 3d e3 df ba 3d 00 fc 9a 3c b0 af b3 3b
       0.08743491 0.09124734 0.018918991 0.00548359
0001a0 ef cc b1 3d 3e 93 65 3d 60 2b 5d 3b 00 4f 74 3a
       0.08681666 0.056048624 0.0033747777 0.0009319633
0001b0 51 d6 c9 3d 00 55 3b 3a f9 1c ba 3d b0 24 6a bd
       0.09855331 0.000714615 0.09087557 -0.057163894
0001c0 40 12 51 bc 36 32 3e 3d d2 aa b7 bd f8 15 b3 bd
       -0.012760699 0.046434604 -0.08968128 -0.087444246
0001d0 80 3c 54 3c cb d7 c5 bd 37 4b 3a bd 26 60 6e 3d
       0.012953877 -0.096603 -0.045481887 0.058197163
0001e0 37 23 5b bd 00 f4 be 3c 9e f7 93 bd 76 52 18 bd
       -0.05350038 0.023309708 -0.072249636 -0.037188016
0001f0 7b a4 89 3d 32 de 9f bd be 46 4a 3d dd fd 50 bd
       0.06720825 -0.07806052 0.04938387 -0.051023353
000200 b9 80 9d 3d 43 80 b0 bd f9 1b a4 3d 6c 27 fa 3c
       0.076905675 -0.08618214 0.08013148 0.030536376
000210 3a 27 c0 bd fe e5 43 3d f7 92 6b bd 13 2e 68 bd
       -0.09382482 0.04782676 -0.057513203 -0.056684565
000220 e0 a0 1f bd 80 c5 8c 3a 89 a8 8b 3d 57 0a b7 3d
       -0.03897178 0.0010740012 0.06819255 0.08937519
000230 88 60 c5 3c 97 d8 b1 bd af 37 c7 bd 95 2a bd 3d
       0.024093881 -0.08683889 -0.09727418 0.092366375
000240 20 13 bd 3b 8e 3c 82 bd 25 83 85 bd 39 bc 82 3d
       0.005770102 -0.06359206 -0.065191545 0.06383557
000250 ac 3b 0d bd e2 84 5a 3d 53 f4 93 bd b4 87 b1 3c
       -0.034480736 0.053349383 -0.072243355 0.021671154
000260 1d 89 c7 3d bf f9 b0 3d 80 1b 85 3a 8a c9 0d bd
       0.09742949 0.08641385 0.001015529 -0.03461603
000270 47 9c b8 3d 8a 2a 86 bd 6e d2 47 3d bc d0 e2 3c
       0.090141825 -0.065510824 0.048784666 0.027687423
000280 00 d2 cb b9 f6 43 90 bd c2 ae 3c 3d d8 ad a0 bc
       -0.0003887564 -0.070442125 0.0460651 -0.019614145
000290 fb eb b9 bd 1e 2d 87 bd 5d 46 1d bd 57 bb ad 3d
       -0.09078213 -0.06600402 -0.03839718 0.08482998
0002a0 80 df 8f 3c e0 97 21 bd 7e 06 33 3d 66 4a 45 3d
       0.017562628 -0.03945148 0.043707363 0.048166655
0002b0 b6 6c 6e 3d 66 94 89 bd 69 df 9f 3d 30 f9 62 bd
       0.058209144 -0.06717758 0.07806284 -0.055413425
0002c0 de 3f 36 3d a8 cf 42 bc a8 c7 c4 3c 1c 68 fa 3c
       0.044494502 -0.011890329 0.024020985 0.030567221
0002d0 93 e6 b0 3d 29 5e c9 3d d1 0b 9f 3d 97 c9 78 bd
       0.086377285 0.09832413 0.07765926 -0.060739126
0002e0 22 55 ad bd 20 16 65 bd 58 9e 9f bd 20 15 30 bd
       -0.084635034 -0.055929303 -0.077938735 -0.042988896
0002f0 c7 03 b7 bd 6b ce a4 3d 1c c7 03 bd 15 2c 99 bd
       -0.08936267 0.080471836 -0.032172307 -0.07479111
000300 01 ac 8e 3d e3 ad ad bd b3 a8 7b bd ba 85 38 bd
       0.06966401 -0.08480432 -0.06144018 -0.045049407
000310 7a 13 58 bd e2 f1 13 3d a3 3f 24 bd 0a d8 65 bd
       -0.05275295 0.03611935 -0.04009975 -0.056114234
000320 30 9a 4a 3c 6e 09 8a bd 38 d0 af bc 00 04 5e bd
       0.012365863 -0.0674008 -0.021461591 -0.054203033
000330 a2 81 31 3d 16 52 36 3d ca fc 46 bd 44 19 ef 3c
       0.043336518 0.044511877 -0.048580922 0.029186852
000340 37 9b 63 bd ea f5 0d 3d 1a 94 67 bd b5 76 9a 3d
       -0.055567946 0.03465835 -0.056537725 0.07542173
000350 1d 1b c1 3d ac fb 89 bc 8c 53 14 bd 70 a1 1d 3c
       0.094289996 -0.01684364 -0.03621249 0.009621009
000360 9e 51 08 3d 34 17 fe bc c0 41 7d 3c 20 53 ca bb
       0.03328096 -0.031016923 0.015457571 -0.00617446
000370 ee 6b 88 bd d8 93 0f 3c 98 7b 39 bc 34 2a 9a 3c
       -0.06661211 0.008763276 -0.011320971 0.018818952
000380 24 87 0e bd b0 a2 23 bc 68 b6 12 3c 60 4a a2 3c
       -0.03479685 -0.009987518 0.008954622 0.019810855
000390 4e 30 24 3d fa f3 39 3d 0d b4 90 bd 4a 13 b6 bd
       0.04008513 0.04539869 -0.07065592 -0.08890398
0003a0 07 cd 3f bd 8b 3f 9c bd 04 ab fd 3c 20 0b b1 3c
       -0.04682639 -0.07629307 0.030965336 0.02161175
0003b0 80 aa d9 3a a0 76 c7 3b 8c ef f6 3c 52 90 63 3d
       0.0016606599 0.0060871392 0.030143522 0.055557556
0003c0 c5 a4 b0 bd a8 ce b1 bc 53 fb 23 bd 0a b2 14 3d
       -0.08625177 -0.021704987 -0.040034603 0.036302604
0003d0 74 5e df bc 98 c4 b4 3c 2d 4b c1 3d d3 5b 4b bd
       -0.027266718 0.0220664 0.09438167 -0.049648117
0003e0 9e 50 06 3d 6e 5e 03 3d 51 aa b5 3d 42 01 25 3d
       0.032791726 0.032072477 0.08870376 0.040284403
0003f0 60 d8 1e 3b cc 3d 89 bd 00 4e c2 b9 c0 0e b6 3c
       0.0024237856 -0.0670124 -0.00037060678 0.02222383

fc4.bias f4 [100]
000000 f0 01 bd bd 29 9e 8d 3d 22 d6 7d 3d 48 0d a1 bc
       -0.09228885 0.06914932 0.06197179 -0.019659653
000010 e1 2f c7 3d 7b c2 9f bd 49 44 bc 3d ea 26 77 3d
       0.09725929 -0.07800766 0.09192712 0.060339846
000020 c2 c7 a2 bd 30 92 58 3c 2d 45 5b bd 22 8e 36 3d
       -0.07948257 0.013218448 -0.053532768 0.044569142
000030 80 4b 84 bb 00 5a 1a b9 5b 15 c4 bd 3f d0 c9 bd
       -0.0040373206 -0.00014720112 -0.09574386 -0.09854173
000040 b4 19 bb bc cb 36 b4 bd b1 ad a2 3d da e4 65 bd
       -0.022839405 -0.087995134 0.07943285 -0.056126453
000050 b8 fd c9 3c 8d f4 83 3d 2f ac c6 3d 34 76 11 bd
       0.024657115 0.06443129 0.0970081 -0.035513118
000060 11 bb 84 3d f2 bd 7b 3d 76 6b 75 3d 18 37 84 bd
       0.064809926 0.061460443 0.059916936 -0.06455821
000070 58 7c 35 bc 63 a5 a3 bd 0e cc 58 3d 13 b8 aa bd
       -0.011077009 -0.079905294 0.052928977 -0.083358906
000080 f4 b2 00 bd c3 cd 69 bd 58 e1 c1 bc ae f3 19 3d
       -0.031420663 -0.057080995 -0.023667023 0.037585907
000090 86 39 80 bd bf e6 b0 bd 43 23 be 3d 0b bd aa bd
       -0.06260972 -0.08637761 0.092840694 -0.08336838
0000a0 d3 d9 c3 3d 40 37 be 3c e2 de 3d 3d 14 dc fb bc
       0.09563031 0.023219705 0.046355136 -0.03074459
0000b0 80 50 9d 3a 8a 41 35 3d 3b e8 b1 bd dd f6 a4 3d
       0.001200214 0.044251956 -0.086868726 0.08054898
0000c0 92 a1 c5 bd 94 54 f7 3c 2e 73 63 3d cd c1 a2 bd
       -0.09649958 0.030191697 0.055529766 -0.07947121
0000d0 00 79 d3 3b c0 cc 54 3b e0 9b 87 3b b4 c1 ca bc
       0.0064536333 0.0032470673 0.004138455 -0.024750568
0000e0 ca 3a 21 bd 98 64 da bc a9 18 a9 3d 1a f2 9f bd
       -0.039362706 -0.026659295 0.08256657 -0.07809849
0000f0 d0 ae 27 3c ed 1a c4 bd 57 da 62 bd 53 d4 b6 bd
       0.01023455 -0.09575448 -0.055384006 -0.089272164
000100 00 12 0a bd 50 26 1a 3c 68 03 a2 3c 69 38 a3 3d
       -0.033708572 0.0094085485 0.019777015 0.07969744
000110 d0 10 34 bc 83 65 9f 3d 4b fb c8 3d c7 45 8a 3d
       -0.010990337 0.07783034 0.09813555 0.0675159
000120 e0 22 3f bd 73 52 c5 3d c6 5d 15 3d 70 35 75 3c
       -0.04666412 0.096348666 0.036466382 0.014966354
000130 cd 4a 96 bd d7 b0 b7 bd aa c7 06 3d 47 d5 b3 3d
       -0.07338486 -0.089692764 0.03290526 0.08780914
000140 6b 7b 8f bd 13 2f aa 3d f9 f5 9f 3d 02 8b 15 3d
       -0.07005962 0.0830976 0.078105874 0.03650952
000150 ec 65 cc 3c 32 04 09 3d b5 56 ad 3d 79 8a ba 3d
       0.024950944 0.033451267 0.08463804 0.09108443
000160 3a 49 33 bd 4e d9 11 3d d8 c3 58 3c 57 a2 8e 3d
       -0.043771006 0.03560763 0.013230287 0.069645576
000170 d0 31 6c 3c 63 d1 b2 bd e9 98 8b 3d db 3f 9b bd
       0.014416173 -0.087313436 0.06816275 -0.07580539
000180 2d 82 ad bd ed 10 35 bd d8 23 ce bc d8 d5 07 bc
       -0.08472095 -0.044205595 -0.025163576 -0.00829073
